…
  x = torch.flatten(x, start_dim=1)\n        x = F.relu(self.fc1(x))\n        x = self.fc2(x)\n        x = torch.chunk(x, 10, dim=1)\n        if self.enable_quantum:\n          x = tuple([hy(x_) for hy, x_ in zip(self.hybrid, x)])\n\n        return torch.cat(x, -1)\n\nA summary of the model is given as follows:\n\nmodel = Net().cuda()\n\nsummary(model, (1, 28, 28))\n\n----------------------------------------------------------------\n        Layer (type)               Output Shape         Param #\n================================================================\n            Conv2d-1            [-1, 6, 24, 24]             156\n            Conv2d-2             [-1, 16, 8, 8]           2,416\n         Dropout2d-3             [-1, 16, 4, 4]               0\n            Linear-4                   [-1, 64]          16,448\n            Linear-5                   [-1, 10]             650\n================================================================\nTotal params: 19,670\nTrainable params: 19,670\nNon-trainable params: 0\n----------------------------------------------------------------\nInput size (MB): 0.00\nForward/backward pass size (MB): 0.04\nParams size (MB): 0.08\nEstimated Total Size (MB): 0.11\n----------------------------------------------------------------\n\n\nNow 
…
